leventproject/leventapp/landmark_model.pth (torch, 212926 bytes, 6 tensors)

fc.0.weight f4 [256, 63]
0	0x3ec9e983	0.39435968
1	0xbeba320d	-0.3636631
2	0xbfcefa10	-1.6170063
3	0x3e5c29a0	0.21500254
4	0xbebd8bae	-0.3702063
5	0x3d2c5967	0.04207745
6	0xbe2668ec	-0.16250962
7	0xbcac5f18	-0.021041438
8	0xbe04ae46	-0.12957105
9	0xbe74792e	-0.23874351
10	0x3d336486	0.04379704
11	0xbe1d071d	-0.15334745
12	0xbc01f5c6	-0.007932132
13	0x3e9adc3f	0.3024616
14	0xbe439ec7	-0.19103537
15	0x3deb3eaf	0.11486565
16	0xbedca648	-0.43095613
17	0xbe312cb5	-0.1730221
18	0xbd33306f	-0.04374736
19	0xbc717a65	-0.014738654
20	0xbce50012	-0.027954135
21	0xbeb529a2	-0.35383326
22	0xbcdbd91a	-0.02683692
23	0xbe25c324	-0.16187721
24	0xbecabf8f	-0.39599273
25	0x3e40e3a5	0.1883684
26	0xbe5d901b	-0.21637003
27	0x3e4823e2	0.19544938
28	0xbe639231	-0.22223736
29	0xbda8e675	-0.08247081
30	0xbd8ac8b3	-0.067765616
31	0x3e106103	0.14099507
32	0xbe41b690	-0.18917298
33	0xbe8fa4d7	-0.2805545
34	0x3e96166b	0.2931398
35	0xbd2c633a	-0.042086817
36	0xbe8ea291	-0.27858403
37	0x3ec16970	0.37775755
38	0x3d9205b7	0.07129996
39	0x3e7085d9	0.23488559
40	0xbeb37cc6	-0.35056132
41	0xbd10d2ef	-0.035357412
42	0x3de2de17	0.110775165
43	0xbafc64f2	-0.0019256158
44	0xbe0211f2	-0.12702158
45	0x3d986990	0.074420094
46	0x3d11b111	0.035569254
47	0x3e5135a0	0.20430613
48	0x3d5af1dc	0.05345331
49	0xbb041acc	-0.0020157574
50	0x3e6ae518	0.22938955
51	0x3ea3d3f7	0.31997654
52	0xbe95e72e	-0.2927794
53	0x3e857672	0.2606693
54	0x3e5343b2	0.20631292
55	0x3d28be26	0.041196965
56	0xbb7f8ec9	-0.0038995019
57	0x3eb7dd84	0.3591119
58	0x3e365bd9	0.17808475
59	0xbc4d83b8	-0.012543611
60	0x3ec7d6a1	0.39030936
61	0x3e99efb0	0.3006568
62	0x3e84eaac	0.2596029
63	0x3e2c158f	0.16805099
64	0x3e57c249	0.21070208
65	0xbe4a19d0	-0.19736409
66	0x3e1e721e	0.1547322
67	0x3db2f245	0.087376155
68	0xbeebf6be	-0.46086687
69	0x3de0bf0d	0.1097394
70	0xbce9a715	-0.028522054
71	0xbe97998b	-0.2960933
72	0x3e8a81c7	0.27052137
73	0xbef52187	-0.47877142
74	0xbe6e0de0	-0.2324748
75	0x3ec9aac4	0.39388096
76	0xbfa3d67f	-1.2799834
77	0xbe58f1c4	-0.21185976
78	0xbce24044	-0.027618535
79	0x3dffcd01	0.12490273
80	0x3f89c0fd	1.076202
81	0xbe9d7a51	-0.30757383
82	0xbd086cfa	-0.033307053
83	0xbd9a79e5	-0.07542781
84	0xbde282c1	-0.110600956
85	0x3dc907f4	0.0981597
86	0xbe895214	-0.26820433
87	0xbdba3a44	-0.090931445
88	0x3ea3cce9	0.31992272
89	0xbe6986ac	-0.2280528
90	0xbd4d841d	-0.05017482
91	0x3de5a24c	0.11212596
92	0x3f9509bb	1.1643595
93	0xbe134c80	-0.14384651
94	0xbda7b376	-0.08188526
95	0x3dbbab5a	0.09163542
96	0xbd0e17f1	-0.0346908
97	0xbc39434b	-0.011307548
98	0x3d88f2ab	0.0668691
99	0x3d92a5d5	0.07160536
100	0xbd4bafc0	-0.049728155
101	0x3ec8a192	0.39185768
102	0xbe75cc03	-0.24003606
103	0x3e208a30	0.15677714
104	0x3f5f4b2d	0.87224084
105	0xbe2bb8d6	-0.16769728
106	0xbc81f468	-0.015863612
107	0xbebfe996	-0.374829
108	0x3e52f7ef	0.20602392
109	0xbca512a2	-0.020150486
110	0x3d8ad6f9	0.06779284
111	0x3e448bd7	0.1919397
112	0x3e696c5f	0.22795247
113	0x3f125d25	0.5717338
114	0xbde895a8	-0.1135667
115	0x3d8eeb51	0.06978477
116	0x3edafe41	0.42772105
117	0xbe1eac5c	-0.15495437
118	0x3d861c55	0.06548373
119	0xbf1b781c	-0.6073015
120	0xbe0e4749	-0.1389438
121	0x3e0d6b30	0.1381042
122	0xbecbcfcb	-0.3980697
123	0x3cee4ace	0.029088404
124	0x3ebc8e0a	0.36827117
125	0xbdbd944b	-0.092568
126	0xbeba9e25	-0.3644878
127	0xbe5d2c1d	-0.21598859
128	0x3dc59266	0.09647064
129	0x3d461f20	0.048369527
130	0xbd48827b	-0.04895256
131	0x3f800015	1.0000025
132	0x3ebbab15	0.36653963
133	0x3e89efe8	0.26940846
134	0x3efdef0e	0.49596447
135	0x3dc4c9ac	0.09608778
136	0x3da713cf	0.08158075
137	0x3c34f977	0.011045805
138	0xbe942b2f	-0.28939196
139	0x3ea2bbd1	0.31783918
140	0xbead9ff8	-0.3391111
141	0x3d4df477	0.050281968
142	0x3eaf6f11	0.34264424
143	0x3f574cf7	0.84101814
144	0x3de16f4a	0.11007555
145	0x3d90a28f	0.070622556
146	0x3f381653	0.71909064
147	0x3ea37142	0.31922346
148	0xbe52f543	-0.20601372
149	0x3f3a647b	0.7280957
150	0x3eb9c0f0	0.36280012
151	0xbf021836	-0.5081819
152	0x3f0b302f	0.543704
153	0xbdcfd75f	-0.10148501
154	0x3e465bfb	0.19371025
155	0x3d8adb86	0.06780152
156	0x3d8090e4	0.06277636
157	0xbdeb95d2	-0.11503185
158	0x3c36309c	0.011119988
159	0xbdf1500b	-0.11782845
160	0x3cb20fd6	0.021736067
161	0xbdb253e0	-0.08707404
162	0xbdea0ea2	-0.11428572
163	0x3e6af368	0.22944415
164	0xbe6cb4a9	-0.23115791
165	0xbe3624e9	-0.17787518
166	0xbe4bd884	-0.19906813
167	0xbf0d6c30	-0.55243206
168	0xbd28a72b	-0.04117505
169	0xbe957721	-0.2919245
170	0xbe84b36e	-0.25918144
171	0xbbba3f6f	-0.0056838314
172	0x3e161029	0.14654602
173	0x3b1c03cf	0.002380598
174	0xbc2997aa	-0.010351101
175	0x3f024893	0.5089199
176	0x3e25e737	0.16201483
177	0xbe8e0328	-0.27736783
178	0xbe480547	-0.19533263
179	0xbf45c100	-0.7724762
180	0xbe806429	-0.25076416
181	0xbf1d2612	-0.61386216
182	0xbd7c64a3	-0.061619412
183	0x3e0a29ed	0.13492556
184	0xbc2f0429	-0.010682144
185	0x3efc5f61	0.49291518
186	0x3e198eec	0.14995927
187	0x3e8d84a1	0.2764025
188	0x3f944dfe	1.1586301
189	0x3e352160	0.17688513
190	0xbd199647	-0.03749683
191	0x3fa07c96	1.2538021
192	0x3d880ac4	0.066426784
193	0xbde446d0	-0.11146319
194	0xbdb115d3	-0.08646741
195	0xbcf635e4	-0.030054994
196	0xbd1d0368	-0.038333327
197	0x3dab35e5	0.08359889
198	0x3c98940e	0.018625285
199	0x3e674844	0.22586161
200	0x3e55aa26	0.20865688
201	0x3e0c6737	0.13711248
202	0x3ef35273	0.4752384
203	0x3d132233	0.035921287
204	0xbd9593c7	-0.07303577
205	0x3e19fba4	0.150374
206	0xbf3650e4	-0.7121718
207	0x3e6c9b74	0.23106176
208	0x3c160122	0.0091555435
209	0x3dd84286	0.10559563
210	0x3f1a1cc1	0.60200125
211	0xbe6ef405	-0.23335274
212	0x3ecdd296	0.40199727
213	0x3f6a39f0	0.91494656
214	0xbee37032	-0.44421536
215	0x3ed0022f	0.40626666
216	0x3c692fce	0.014232589
217	0xbce13efa	-0.02749585
218	0xbf2fc001	-0.6865235
219	0xbeac5675	-0.3365971
220	0x3e4d6acf	0.20060275
221	0xba4985bf	-0.0007687471
222	0xbee40221	-0.44532874
223	0xbc4025bb	-0.011727746
224	0xbe5c339d	-0.21504064
225	0xbf1b4363	-0.606497
226	0xbeaa4b42	-0.33260542
227	0xbe94498f	-0.2896237
228	0x3d39602a	0.045257725
229	0xbca541e8	-0.020173028
230	0xbd82b00f	-0.06381237
231	0xbe2a8557	-0.16652428
232	0x3cd6f7d5	0.026241222
233	0x3ed15969	0.40888527
234	0xbdd5b97a	-0.104357675
235	0x39fea6b8	0.0004857087
236	0x3d94e443	0.072701
237	0xbe4e1a6c	-0.20127267
238	0xbea990ba	-0.3311823
239	0xbecc3c21	-0.39889625
240	0x3e5209dc	0.20511574
241	0x3dac8102	0.08423044
242	0x3e4d9c6a	0.20079198
243	0xbdb8d9a8	-0.0902589
244	0x3d5ec3eb	0.05438606
245	0x3f1bb7c1	0.6082726
246	0xbe48485c	-0.19558853
247	0x3e38014f	0.17969249
248	0x3eb81962	0.35956866
249	0xbdfa6ce9	-0.12227804
250	0x3e0d14c9	0.1377746
251	0x3ec52c3f	0.3851032
252	0x3caabe97	0.020842833
253	0x3da7dfdd	0.081969954
254	0xbdfbefe4	-0.12301615
255	0x3e81a013	0.2531744

fc.0.bias f4 [256]
0	0xbe5537d3	-0.20822076
1	0xbd97fe2a	-0.07421525
2	0xbd0eeb89	-0.034892593
3	0xbd98705f	-0.07443308
4	0xbd288121	-0.041138772
5	0xbca22b91	-0.019796165
6	0x3b8c58b6	0.004283036
7	0xbe07a8e1	-0.13248016
8	0xbdf96ad2	-0.121785775
9	0xbdefad92	-0.11703028
10	0xbd7457f2	-0.059654184
11	0xbeddcde2	-0.4332114
12	0xbdc252d1	-0.09488452
13	0x3db43d9c	0.088008136
14	0xbd9b7928	-0.07591468
15	0xbd0104f1	-0.031498853
16	0xbda4c7bd	-0.080459096
17	0xbe771018	-0.24127233
18	0xbced62bc	-0.028977744
19	0xbb4022c7	-0.0029317604
20	0xbd4e90d2	-0.05043108
21	0x3e6430d9	0.22284259
22	0x3d4ac844	0.049507394
23	0xbe0f5d6e	-0.14000484
24	0xbe1334ef	-0.14375661
25	0xbd4bc941	-0.049752478
26	0xbe45946b	-0.19294898
27	0x3d8bd97e	0.06828593
28	0x3e3dd215	0.18537171
29	0x3db1a32f	0.08673703
30	0xbd09e1ae	-0.03366249
31	0xbd071db3	-0.032987308
32	0xbe0bc8a0	-0.13650751
33	0xbd8b2710	-0.0679456
34	0x3d01c2c0	0.03167987
35	0x3c9859e6	0.018597554
36	0xbdbe71e2	-0.09299065
37	0x3c70a4d7	0.014687738
38	0x3e122dd5	0.14275296
39	0xbd936220	-0.0719645
40	0xbd9eaffe	-0.077484116
41	0xbe002a15	-0.12516053
42	0xbcca8c72	-0.024725173
43	0x3d8cc1df	0.068729155
44	0xbe66b859	-0.2253126
45	0x3d4c4725	0.049872536
46	0xbe0cf97f	-0.1376705
47	0xbda09105	-0.0784016
48	0xbda3f5f6	-0.08005898
49	0xbe342e64	-0.17595822
50	0x3e29138d	0.16511364
51	0xbcfa7022	-0.030571047
52	0x3cf33838	0.029689893
53	0xbc28d449	-0.010304519
54	0x3b20fce8	0.0024564806
55	0xbd3dda71	-0.0463509
56	0xbd40bc98	-0.047054857
57	0xbcdc8635	-0.026919464
58	0xbe28d283	-0.16486554
59	0x3c102244	0.008797232
60	0x3d3ef88e	0.04662376
61	0xbd503de9	-0.050840292
62	0x3c3e18e2	0.011602612
63	0x3c5f310f	0.013622536
64	0xbbd7cd45	-0.0065857493
65	0x3dab519b	0.083651744
66	0xbdb8fa5c	-0.09032127
67	0xbdbaa525	-0.0911353
68	0xbce9bc28	-0.028532103
69	0xbd5cf775	-0.05394693
70	0xbe64620b	-0.22303025
71	0xbd9c02af	-0.07617699
72	0x3e325b7f	0.17417715
73	0xbd562b3d	-0.05228733
74	0xbc0d69f3	-0.008631217
75	0xbe83e5a9	-0.25761154
76	0xbe1aef14	-0.15130264
77	0x3db64657	0.08900135
78	0x3d2547ad	0.04035156
79	0xbde261b2	-0.1105379
80	0x3ce84e57	0.028357668
81	0x3d251648	0.040304452
82	0x3e29979e	0.16561744
83	0xbd3b7199	-0.045762632
84	0xbd701b9c	-0.05862008
85	0x3c705d95	0.014670749
86	0xbc7a8a1b	-0.015291716
87	0x3c7643ca	0.015030811
88	0xbd4c9eaa	-0.049956
89	0x3e9e77dd	0.30950823
90	0xbe277fad	-0.16357298
91	0xbd8e327d	-0.069432236
92	0x3c3d099e	0.011537937
93	0xbdd5ed90	-0.10445702
94	0x3e83897d	0.25690833
95	0x3da90ab4	0.082539946
96	0xbd41bfce	-0.04730206
97	0xbe6975ed	-0.22798891
98	0xbe0b3614	-0.13594848
99	0xbd09cc2e	-0.033641987
100	0xbde99674	-0.1140565
101	0x3db56057	0.08856266
102	0x3e65b2c9	0.22431482
103	0x3dbe7622	0.09299876
104	0xbd237524	-0.039906636
105	0x3b6fa3fb	0.0036566246
106	0xbd066f9f	-0.032821294
107	0xbcd839f7	-0.026394827
108	0xbe0c76c5	-0.13717182
109	0x3d94cccb	0.07265624
110	0xbd946217	-0.07245272
111	0xbe09c1f1	-0.13452889
112	0x3cea2cff	0.028585909
113	0xbdefe6e3	-0.1171396
114	0x3b0deb80	0.0021655262
115	0x3d4daf63	0.05021609
116	0xbd8cf215	-0.06882111
117	0xbd9158e6	-0.07097034
118	0x3c93837d	0.018007034
119	0xbd79f171	-0.061021272
120	0xbd5aab5c	-0.053386077
121	0xbd2c34c6	-0.042042516
122	0xbdecc80f	-0.11561596
123	0x3d4d1eb2	0.0500781
124	0x3d8d4b8e	0.068991765
125	0x3d667b1a	0.056269743
126	0xbe866cc9	-0.2625487
127	0xbd4659eb	-0.048425596
128	0xbd59c365	-0.05316486
129	0x3cf388e5	0.029728362
130	0xbe05e03c	-0.1307382
131	0xbd2bb5ae	-0.04192131
132	0xbd470158	-0.048585266
133	0xbe3b68ef	-0.18301748
134	0xbd024e50	-0.031812966
135	0xbce15a87	-0.027508987
136	0xbd783e73	-0.06060643
137	0x3da03f31	0.07824553
138	0x3c227880	0.009916425
139	0x3d397f18	0.04528722
140	0x3b958bb8	0.004563775
141	0x3d8c6848	0.068558276
142	0xbdc64f47	-0.0968309
143	0x3c233189	0.009960541
144	0xb99ba174	-0.00029684196
145	0xbdac390f	-0.084093206
146	0xbd8aed70	-0.06783569
147	0xbb7455f3	-0.0037282675
148	0xbc8b54bf	-0.017008184
149	0xbe63a8d0	-0.22232366
150	0x3dc4d8d1	0.09611667
151	0xbcca596a	-0.02470084
152	0xbde7eabf	-0.11324071
153	0xbd44728b	-0.0479608
154	0xbe345076	-0.17608818
155	0x3d8d6fe8	0.0690611
156	0xbdfd6b9d	-0.12374041
157	0xbe4f731a	-0.20258752
158	0xbdf9291b	-0.12166043
159	0x3b8f91df	0.004381403
160	0xbdb94188	-0.09045702
161	0xbd18ef39	-0.037337516
162	0xbd84f263	-0.06491544
163	0xbe1c8447	-0.15284835
164	0x3de1c9cb	0.11024817
165	0xbca0a5c5	-0.019610295
166	0xbde701fb	-0.112796746
167	0x3da85805	0.082199134
168	0x3ce1ad33	0.027548408
169	0xbcc19428	-0.023630217
170	0xbdad91cf	-0.084750764
171	0xbcc8ebf5	-0.024526576
172	0x3abfc62a	0.0014631201
173	0x3daf83ee	0.085700855
174	0xbe07d93e	-0.13266465
175	0x3dd303d7	0.10303467
176	0x3f001c48	0.50043154
177	0xbdb4e986	-0.088336036
178	0x3d22cc81	0.03974581
179	0xbd8d76c4	-0.06907418
180	0xbe05e4a1	-0.13075496
181	0x3e57e245	0.21082409
182	0xbdbe9d24	-0.09307316
183	0xbda6b724	-0.081404
184	0x3dc97a4b	0.09837779
185	0xbd36ff6d	-0.044677187
186	0x3a7a0d97	0.0009538768
187	0x3e62cb91	0.22147967
188	0x3c38e1ff	0.01128435
189	0x3d4e3bed	0.05035012
190	0x3d29ead4	0.041483715
191	0x3b12d611	0.0022405426
192	0x3e1320c5	0.1436797
193	0xbdf595a9	-0.11991436
194	0x3e0404bc	0.12892431
195	0x3e373801	0.17892458
196	0xbe7c21ba	-0.2462224
197	0x3e1eb00d	0.15496846
198	0x3bad2831	0.005284332
199	0xbd737485	-0.059437294
200	0xbd6b7308	-0.05748275
201	0x3d82d2ee	0.06387888
202	0xbda6b32e	-0.081396446
203	0xbd843ed3	-0.06457295
204	0xbca085e6	-0.019595098
205	0x3d5af10c	0.053452536
206	0xbdbbc9c7	-0.09169345
207	0x3d73f108	0.059556037
208	0x3d5b2213	0.053499293
209	0x3c94d40b	0.018167516
210	0xbc0619a3	-0.008184823
211	0x3e563424	0.20918328
212	0x3d4732fd	0.04863261
213	0xbe0028bb	-0.12515537
214	0xbe787800	-0.24264526
215	0x3ddc4b68	0.1075657
216	0xbe0a6b9f	-0.13517617
217	0xbd89506e	-0.06704794
218	0x3e1f2e9d	0.15545125
219	0xbd19d648	-0.03755787
220	0x3da46ace	0.08028184
221	0xbdf500ec	-0.119630665
222	0xbc0a3c91	-0.008437292
223	0x3d0bd4ad	0.03413837
224	0x3d034d1b	0.032055955
225	0xbe0581a7	-0.1303774
226	0x3d7d6dab	0.061872166
227	0xbd6b53ae	-0.05745285
228	0xbd4da8a2	-0.05020965
229	0x3d801a45	0.062550105
230	0x3e768d7c	0.2407741
231	0xbd26c289	-0.040712867
232	0xbda043ea	-0.078254536
233	0x3de3ab5d	0.11116669
234	0xbdae736a	-0.08518107
235	0x3e1e1f92	0.1544173
236	0x3be7ab9e	0.007070019
237	0x3d06acb8	0.03287956
238	0x3d8a0130	0.06738508
239	0xbb6c3d63	-0.0036047332
240	0x3d0e770f	0.034781512
241	0x3dc2b99e	0.0950806
242	0x3d183834	0.037162974
243	0xbd7648c7	-0.060128
244	0xbe0eeffb	-0.13958733
245	0xbde6cdb6	-0.11269705
246	0x3e2c56e0	0.16830015
247	0x3e743bcf	0.2385094
248	0xbda2e575	-0.07953922
249	0xbe06957e	-0.13142964
250	0xbd969d92	-0.07354273
251	0x3d92c9fb	0.07167431
252	0xbe3d2af0	-0.1847341
253	0x3d72cbbc	0.059276327
254	0xbcf32394	-0.02968005
255	0xbd40db7b	-0.047084313

fc.3.weight f4 [128, 256]
0	0xbc416c99	-0.011805677
1	0xbf1a0f45	-0.6017955
2	0xbce1f9f5	-0.02758501
3	0x3d0164ef	0.0315904
4	0xbeb170f7	-0.34656498
5	0x3ee57c8d	0.44821587
6	0x3ccb0373	0.024781918
7	0xbd650a22	-0.055917867
8	0x3e7b02b6	0.24512753
9	0x3d9cce45	0.0765653
10	0x3ebb9341	0.36635783
11	0x3ebfc832	0.37457424
12	0xbd10947c	-0.035297856
13	0xbe85daf0	-0.261436
14	0xbd9095ba	-0.07059808
15	0xbc808ebb	-0.01569306
16	0x3d19aeb1	0.037520114
17	0x3edf7242	0.4364186
18	0xbf002a7c	-0.50064826
19	0x3d2e8874	0.0426106
20	0x3d5c9e00	0.053861618
21	0xbdd68e24	-0.1047633
22	0xbed3228d	-0.41237298
23	0xbe841160	-0.25794506
24	0x3d8459b9	0.06462426
25	0x3d99699d	0.07490847
26	0x3e93d847	0.28875944
27	0x3e744ee3	0.23858218
28	0xbe2e6a2a	-0.17032686
29	0x3dddb132	0.10824813
30	0x3d0b714c	0.034043595
31	0x3ec744d2	0.38919693
32	0xbe9f5485	-0.3111917
33	0xbccfef15	-0.025382558
34	0x3ddb90a0	0.107209444
35	0x3f1280d1	0.5722781
36	0x3dd0a774	0.10188189
37	0x3e90a415	0.28250185
38	0x3e9b189d	0.30292216
39	0xbed9b538	-0.4252107
40	0xbcd2873c	-0.02569925
41	0x3c55b08e	0.013042582
42	0xbe7f7803	-0.24948125
43	0xbe03aef9	-0.12859716
44	0x3d73b55b	0.059499126
45	0xbedba042	-0.42895705
46	0xbcea65e7	-0.028613044
47	0xbc38d469	-0.011281111
48	0xbc22473e	-0.009904681
49	0xbd9e022e	-0.077152595
50	0x3ea660f4	0.32495844
51	0xbcd64254	-0.026154675
52	0xbf1880fe	-0.59571826
53	0xbe11ccdf	-0.14238308
54	0xbd3bb4fc	-0.045826897
55	0xbe4bcf99	-0.19903411
56	0xbbbd3c2a	-0.0057749944
57	0xbd657698	-0.056021303
58	0x3f13144c	0.57452846
59	0xbdf451d9	-0.11929674
60	0x3e6d11d1	0.23151328
61	0x3d335f09	0.043791804
62	0x3d7d76c5	0.061880846
63	0xbeabb698	-0.33537745
64	0x3d0690a1	0.032852773
65	0x3d95305f	0.07284617
66	0x3cc2377d	0.0237081
67	0xbd0cb444	-0.034351602
68	0xbc8a2da4	-0.016867466
69	0x3bc98d60	0.0061508864
70	0x3e22bdfb	0.15892784
71	0x3f200de1	0.6252118
72	0x3db620bb	0.088929616
73	0x3d05d0ca	0.03266982
74	0x3e914825	0.28375354
75	0x3e9bd150	0.3043313
76	0xbc91f4d4	-0.017816938
77	0xbf37db06	-0.7181858
78	0x3ef06c8c	0.46957815
79	0x3cd39fbd	0.025833005
80	0x3d8bce41	0.06826449
81	0x3d929a19	0.07158298
82	0xbe9e3187	-0.3089716
83	0xbcda2151	-0.026627215
84	0xbd90399c	-0.07042238
85	0x3d7e0a78	0.062021703
86	0xbe0ab3ac	-0.13545102
87	0x3f0e0c05	0.5548709
88	0x3d88bbc4	0.066764385
89	0x3e508433	0.2036293
90	0xbe0053b6	-0.12531933
91	0x3eedcf5a	0.4644726
92	0x3cc88e44	0.0244819
93	0x3d37ea4b	0.044901174
94	0xbd9bb2f1	-0.0760249
95	0xbeae59b8	-0.34052825
96	0xbe465363	-0.19367747
97	0x3d4a3545	0.049367208
98	0x3ce2d5f3	0.02768991
99	0xbc81803c	-0.015808217
100	0x3c8850b4	0.016640045
101	0x3ea2b700	0.31780243
102	0xbea169fc	-0.31526172
103	0xbe38d246	-0.18048963
104	0xbe5adcde	-0.21373317
105	0x3e30af25	0.17254312
106	0x3df6ce53	0.12051072
107	0xbed9658f	-0.42460296
108	0x3ebbfc29	0.3671582
109	0xbcf7bb74	-0.030240752
110	0xbeac0161	-0.33594802
111	0x3ec43dc1	0.38328364
112	0xbd13fe06	-0.036130928
113	0x3d177eb8	0.036986083
114	0x3c9adf7c	0.018905394
115	0x3d190856	0.037361465
116	0x3d4b2fd6	0.049606167
117	0xbf4b155d	-0.7932947
118	0xbe4344db	-0.19069235
119	0xbc92bf59	-0.017913507
120	0x3dac5cb4	0.08416119
121	0xbebd6ed9	-0.36998633
122	0x3cb503e4	0.022096582
123	0x3d7f2089	0.062286887
124	0xbe6da1c5	-0.23206241
125	0xbee5219b	-0.447522
126	0xbe3a03d3	-0.18165521
127	0x3e2ba0da	0.16760579
128	0x3e72fe9b	0.23729937
129	0x3d5144b7	0.051090922
130	0xbce968c0	-0.028492332
131	0x3f27c75c	0.65538573
132	0xbd7e90e6	-0.062149905
133	0x3e360643	0.17775826
134	0xbb29d70f	-0.0025915538
135	0x3ccdf52e	0.025141325
136	0x3c03ca7a	0.00804388
137	0xbf506df7	-0.81417793
138	0xbd9b3472	-0.075783625
139	0xbd95ba6c	-0.07310948
140	0x3ea9382b	0.33050665
141	0x3ec679dd	0.3876485
142	0x3e18a91d	0.14908262
143	0x3e00b85b	0.12570326
144	0xbd3bd26c	-0.04585497
145	0x3ead6c1a	0.33871537
146	0xbe63f906	-0.22262964
147	0x3dbc5812	0.091964856
148	0xbf11bdeb	-0.56930417
149	0xbf1878da	-0.59559405
150	0xbe046640	-0.1292963
151	0xbcb5b708	-0.022182003
152	0x3d1e1c04	0.038600937
153	0xbecd7050	-0.4012475
154	0x3e8c0499	0.27347258
155	0x3d10aaf8	0.0353193
156	0x3e605f93	0.21911459
157	0xbdb76d03	-0.08956339
158	0x3d5968a1	0.053078298
159	0x3da3291b	0.079668246
160	0x3c6f5c70	0.014609441
161	0x3d4f478c	0.05060534
162	0xbe0f6b18	-0.14005697
163	0x3d17b000	0.03703308
164	0xbd1cca5e	-0.03827893
165	0x3c3893b0	0.01126568
166	0x3e5475b8	0.20748031
167	0x3ef96189	0.48707226
168	0x3e46ba99	0.19407119
169	0x3e51d68d	0.20492001
170	0x3f2c5491	0.6731654
171	0x3e9c0719	0.30474165
172	0x3d38c482	0.04510928
173	0xbaf683c0	-0.0018807575
174	0xbd5d3f24	-0.054015294
175	0xbe48c50d	-0.19606419
176	0xbe0ef03a	-0.13958827
177	0x3cc95a37	0.02457915
178	0xbe7ed401	-0.2488556
179	0x3debe455	0.1151816
180	0x3eb3ce35	0.3511826
181	0xbd70d016	-0.058792196
182	0x3d2d98c6	0.042382024
183	0x3ec7d857	0.39032242
184	0xbecd6cd0	-0.4012208
185	0x3d90296a	0.07039149
186	0xbe843f4b	-0.2582954
187	0xbe5fd815	-0.21859773
188	0x3eacbc73	0.33737525
189	0x3d8eaebf	0.06966924
190	0x3dd894f0	0.105752826
191	0xbd488b69	-0.048961077
192	0x3caab26c	0.020837031
193	0xbe9fca73	-0.31209144
194	0xbe252d7a	-0.16130629
195	0xbe8b57d7	-0.27215454
196	0x3e3fa3ff	0.18714903
197	0x3d63fbdb	0.05566011
198	0xbf1a8573	-0.6035988
199	0x3e003967	0.12521897
200	0x3d4c7d4c	0.04992418
201	0xbe51c4a5	-0.2048517
202	0xbe904191	-0.28175023
203	0x3e8c1194	0.2735716
204	0x3f3c7653	0.7361805
205	0xbeb7a2e5	-0.35866466
206	0xbd5e6328	-0.05429378
207	0xbd6e2c98	-0.058147997
208	0xbe71505e	-0.23565814
209	0xbd0e8efd	-0.034804333
210	0xbeb8a611	-0.360642
211	0xbd7fa071	-0.06240887
212	0xba952b92	-0.0011380783
213	0xbd6f1c05	-0.05837633
214	0x3ea95435	0.33072057
215	0x3eb94089	0.3618205
216	0x3d157937	0.036492553
217	0x3e0fb2fa	0.14033118
218	0x3d531a6e	0.051538877
219	0x3dfd7edf	0.12377714
220	0x3d05cfe7	0.032668974
221	0x3d024f44	0.031813875
222	0x3e11509b	0.14190905
223	0xbd2b47b8	-0.041816443
224	0x3f3e61d3	0.7436802
225	0xbd795e74	-0.060881093
226	0x3f002ca5	0.5006812
227	0x3d32b940	0.0436337
228	0xbc1c7377	-0.009549013
229	0xbe873a14	-0.26411498
230	0xbdad3ac7	-0.084584765
231	0xbdddc67f	-0.10828876
232	0x3ea2256d	0.3166918
233	0xbe796c27	-0.24357663
234	0x3c3a5ed8	0.011375152
235	0x3ca9cf41	0.02072871
236	0x3d4d8d74	0.05018373
237	0xbb2c0f20	-0.0026254132
238	0xbef244ec	-0.47318208
239	0x3ef3670b	0.47539553
240	0x3ce54422	0.02798659
241	0xbba82b22	-0.005132095
242	0x3bb222d5	0.005436281
243	0xbe0ba935	-0.13638766
244	0x3e94efde	0.29089254
245	0x3d3082af	0.04309338
246	0x3e16c07b	0.14721863
247	0xbd6bc9c9	-0.057565484
248	0x3d424388	0.047427684
249	0xbba73f4b	-0.0051039807
250	0x3db38222	0.08765055
251	0x3e256d87	0.16155063
252	0xbe17d889	-0.14828695
253	0x3f09107e	0.5354079
254	0x3e15eb4f	0.14640544
255	0x3e833deb	0.25633177

fc.3.bias f4 [128]
0	0x3d6b720c	0.05748181
1	0xbd864d34	-0.06557694
2	0x3da22157	0.07916515
3	0x3e7b3719	0.24532737
4	0x3ee2a393	0.44265422
5	0x3dab8cef	0.0837649
6	0x3eac0ee0	0.336051
7	0x3e8a7185	0.27039734
8	0xbf1e5eb3	-0.6186325
9	0xbdc7f6da	-0.0976388
10	0x3eb4618e	0.35230678
11	0x3eae173a	0.34002095
12	0xbe61f5b8	-0.2206639
13	0x3d3dcb2c	0.046336338
14	0xbe0e546f	-0.13899396
15	0x3cc69fad	0.024246061
16	0x3d70d6e8	0.0587987
17	0x3e66c5f0	0.22536445
18	0x3e65dd76	0.22447762
19	0xbeb7c8f5	-0.35895506
20	0xbd78ebaa	-0.06077162
21	0xbcda04d1	-0.026613625
22	0xbd288080	-0.041138172
23	0x3f5fd1ec	0.8742969
24	0x3e3ac2c4	0.1823836
25	0x3ea3d28f	0.3199658
26	0x3e38e4f4	0.18056089
27	0xbe21d9cb	-0.15805738
28	0x3f3d41aa	0.7392832
29	0x3d4469b4	0.04795237
30	0x3ea72abc	0.3264979
31	0x3f06e44a	0.5269209
32	0x3f1ba096	0.6079191
33	0x3ea06362	0.31325823
34	0x3ef6dce5	0.48215404
35	0x3e9ddffa	0.30834943
36	0x3d0632f9	0.032763455
37	0xbba40bb7	-0.0050062793
38	0x3c9c2180	0.019058943
39	0x3efd16bb	0.49431404
40	0x3edb1cc0	0.42795372
41	0x3efe9c0a	0.49728423
42	0x3e798eb5	0.24370845
43	0x3e5f7044	0.2182017
44	0x3eab8589	0.33500317
45	0x3e48fde7	0.19628106
46	0xbe736a2f	-0.23770975
47	0x3e1f61a9	0.15564598
48	0x3e26ccbc	0.16289037
49	0xbd9f5940	-0.07780695
50	0x3ea68038	0.32519698
51	0x3e207eae	0.15673324
52	0x3ee75628	0.4518292
53	0x3ebeb87c	0.37250125
54	0x3e03a1ca	0.12854686
55	0xbe1d075d	-0.1533484
56	0x3eccf4d3	0.40030536
57	0xbe455056	-0.19268927
58	0xbe51bd5b	-0.2048239
59	0xbd792c1f	-0.060833093
60	0x3e0e2679	0.13881864
61	0x3ea8297e	0.32844156
62	0xbb7ff0c6	-0.0039053424
63	0x3e8ebb9c	0.2787751
64	0x3ec8e2a5	0.39235416
65	0xbd2dec24	-0.04246153
66	0x3dac4070	0.08410728
67	0x3ef5f9e0	0.48042202
68	0x3e060ca2	0.13090757
69	0x3e0bee78	0.13665187
70	0x3d3bec4e	0.045879655
71	0x3e7b9c35	0.24571307
72	0xbe114527	-0.14186536
73	0x3ce09910	0.027416736
74	0x3e94bb81	0.29049304
75	0x3d0cdb90	0.03438908
76	0xbe9ff49b	-0.31241307
77	0xbd97bc9d	-0.07409022
78	0xb9e1f550	-0.00043098116
79	0x3d707c71	0.058712427
80	0x3e9481e9	0.29005364
81	0x3e02b68d	0.1276495
82	0x3e2b860c	0.16750354
83	0xbf18d8f3	-0.5970604
84	0x3f3884ff	0.72077936
85	0x3e7e8757	0.24856316
86	0x3ecd05b1	0.40043405
87	0x3f2b6009	0.66943413
88	0xbe02ad8e	-0.12761518
89	0x3f191bd2	0.59808075
90	0x3c86b331	0.016442867
91	0x3e3cc197	0.18433224
92	0x3e2436a0	0.16036463
93	0x3e309342	0.17243674
94	0xbcc5e9bf	-0.02415931
95	0x3c7f4f8b	0.015582929
96	0x3e9e9059	0.30969504
97	0x3ec13f6c	0.377437
98	0xbd610c7c	-0.054943547
99	0x3f025619	0.50912625
100	0xbe0f2302	-0.13978198
101	0x3ebbc60b	0.36674532
102	0x3f1c0030	0.60937786
103	0x3e8ac7a0	0.27105427
104	0x3eea824c	0.45802534
105	0x3ecb339f	0.3968782
106	0x3e94f48e	0.2909283
107	0x3d5109d8	0.05103478
108	0x3f0550d6	0.5207647
109	0x3eea3ab5	0.45747915
110	0x3f388db8	0.72091246
111	0xbc5ca67f	-0.01346743
112	0x3f29a32a	0.66264594
113	0x3e412a6c	0.18863839
114	0x3f275ea6	0.653788
115	0xbe85bd1c	-0.26120842
116	0xbccd733c	-0.025079362
117	0x3eb64a4f	0.35603568
118	0x3ea36f38	0.3192079
119	0xbdabbbaa	-0.083854035
120	0x3dd16654	0.10224596
121	0x3e018ed9	0.12652148
122	0xbd129f79	-0.035796616
123	0xbd9a2aae	-0.07527672
124	0x3efeea85	0.497883
125	0x3ecb39bd	0.39692488
126	0x3dd8be2c	0.105831474
127	0xbe2a5abc	-0.16636175

fc.6.weight f4 [26, 128]
0	0xbef99518	-0.48746562
1	0x3ef455cd	0.4772171
2	0x3de67e46	0.112545535
3	0xbfd7c490	-1.6856861
4	0xbfc033ac	-1.5015769
5	0xbf14d376	-0.58135164
6	0x3e7d693f	0.2474718
7	0xbfa304a5	-1.2735792
8	0x3e7aba7a	0.24485198
9	0xbf2fb65c	-0.68637633
10	0x3d526904	0.051369682
11	0x3e4748ed	0.19461413
12	0x3e718e73	0.23589496
13	0xbf59cd9f	-0.8507938
14	0x3e0d0ec5	0.13775165
15	0xbe9ad494	-0.3024031
16	0x3de7138e	0.11283027
17	0x3e2ee0fc	0.17078012
18	0xbe69aa8d	-0.22818966
19	0xbf2630b2	-0.64918053
20	0x3d430ff1	0.047622625
21	0xbf39b8dd	-0.72547704
22	0xbfbfcaf1	-1.4983808
23	0x3daaf956	0.08348338
24	0x3ece7baa	0.40328723
25	0xbf4348cc	-0.76282954
26	0xbf338d6f	-0.70137686
27	0x3ee4dbbb	0.4469889
28	0x3d8f9858	0.07011479
29	0xbfd7e15f	-1.6865653
30	0xbfc141da	-1.5098221
31	0xbe1fb9db	-0.15598242
32	0xbf1d396b	-0.6141574
33	0xc0083ce3	-2.1287162
34	0x3e02ec90	0.12785554
35	0x3debf226	0.115207955
36	0x3e5d678b	0.2162153
37	0xbd994a27	-0.074848466
38	0xbbc9bc12	-0.006156453
39	0xbe8e8a88	-0.27840066
40	0xbf41ea9d	-0.75748616
41	0xbe83eb03	-0.25765237
42	0xbf8cbb5b	-1.0994676
43	0xbe2bda2a	-0.16782442
44	0x3dd1c92f	0.10243451
45	0x3e2daafa	0.16959754
46	0xbe3e2640	-0.18569279
47	0xbf1e1d27	-0.6176323
48	0xbeba1c59	-0.36349753
49	0x3e096dee	0.13420841
50	0x3e271951	0.16318251
51	0x3e2aa2df	0.16663693
52	0xbc7ecdaa	-0.015551964
53	0xbf3b02d5	-0.73051196
54	0xbee211ea	-0.44154292
55	0x3f0eb1e7	0.5574021
56	0xbe038183	-0.12842374
57	0xbfaa8877	-1.3322896
58	0x3e1b5193	0.15167837
59	0xbe664fa2	-0.22491315
60	0x3e6fbc95	0.23411782
61	0x3ed22094	0.4104048
62	0x3de1c8dc	0.11024639
63	0xbeceb56c	-0.4037279
64	0x3aea6116	0.0017881717
65	0xbd0d27d0	-0.034461796
66	0x3e8c095e	0.27350897
67	0x3e5a40b6	0.21313748
68	0x3db2207a	0.08697601
69	0xbfea21e0	-1.8291588
70	0xbe2773de	-0.16352794
71	0xbfa11e9c	-1.2587466
72	0x3ed7c86b	0.42145094
73	0xbfd6a3eb	-1.6768774
74	0xc00eadad	-2.2293503
75	0x3e1f5d35	0.155629
76	0xbff67aab	-1.9256185
77	0xbd948fea	-0.07254012
78	0x3d3d9d99	0.046292875
79	0xbfead8b7	-1.8347386
80	0x3c2d0176	0.01055943
81	0xbe73d512	-0.23811749
82	0xbe219f20	-0.15783358
83	0xbf9709f3	-1.1799911
84	0xc00ee5eb	-2.232783
85	0x3df8c42e	0.12146793
86	0x3eab0efc	0.3340987
87	0xc00afaa2	-2.1715474
88	0x3bac924b	0.005266463
89	0xbea59c44	-0.32345784
90	0xbd425fea	-0.047454752
91	0xbf50481f	-0.8136005
92	0xbe4c7fb9	-0.19970597
93	0xbe6fe9e3	-0.23429064
94	0x3e57a1e4	0.2105785
95	0x3d67fe83	0.056639206
96	0xbf48cf0a	-0.78440917
97	0x3e635c5d	0.22203203
98	0x3d81aa8f	0.063313596
99	0x3e81415c	0.25245178
100	0x3e70aec8	0.23504174
101	0x3e0a497f	0.13504599
102	0x3dd44462	0.103646055
103	0x3e326901	0.17422868
104	0xbf57922c	-0.84207416
105	0x3e4f8796	0.20266566
106	0xbece407e	-0.4028358
107	0xbd20b121	-0.039231423
108	0x3e1bd6b4	0.15218621
109	0x3d0a9213	0.033830713
110	0x3e6cc932	0.23123625
111	0xbf62be64	-0.88571763
112	0x3eac9325	0.33706012
113	0x3e82ede1	0.25572112
114	0x3e83e79c	0.2576264
115	0x3e3977a7	0.1811205
116	0x3dd31ec5	0.10308603
117	0x3e99185d	0.299014
118	0x3e57ebf4	0.21086103
119	0x3d10ff2b	0.035399597
120	0xbe0a85a1	-0.13527538
121	0xbec06ba0	-0.3758211
122	0xbdb4ae36	-0.088222906
123	0x3cf4354d	0.029810572
124	0xbf7e5fff	-0.9936523
125	0x3e31a395	0.17347558
126	0x3dd32a46	0.103107974
127	0x3d859a93	0.06523623
128	0xbf295a13	-0.6615307
129	0x3e0d83b1	0.13819768
130	0xbf4a8461	-0.79108244
131	0xbe96b68a	-0.2943614
132	0x3e3c5351	0.18391158
133	0xbf536745	-0.8257945
134	0xbfccd6df	-1.6003073
135	0x3e39de38	0.18151176
136	0x3e4058a9	0.18783821
137	0xbf23a99a	-0.63930666
138	0xbfde7466	-1.7379272
139	0xbe1f2ca6	-0.15544376
140	0x3e273ad4	0.16331035
141	0x3e6f6357	0.23377739
142	0xbeaea8e3	-0.34113225
143	0xbe6fbd3a	-0.23412028
144	0x3dc8aa22	0.09798075
145	0xbf604de5	-0.8761886
146	0x3d539693	0.05165727
147	0xbbe4ef54	-0.006986538
148	0xbfdcce68	-1.725049
149	0x3e80c00e	0.25146526
150	0x3e41fb5b	0.18943541
151	0xbdb909c7	-0.09035068
152	0x3e1e972c	0.15487355
153	0xbe79a720	-0.2438016
154	0x3b361f8c	0.00277898
155	0x3e435a56	0.19077429
156	0xbf1c3aa4	-0.6102698
157	0x3df8a0d7	0.12140053
158	0x3e8f7fc0	0.28027153
159	0x3e56ad96	0.20964655
160	0x3dfbf39e	0.12302326
161	0xbd213a78	-0.0393624
162	0xbfe25196	-1.7681148
163	0xbf9a7d6b	-1.2069525
164	0xbfd9e746	-1.7023704
165	0x3e93fa74	0.28902018
166	0xbf1593fe	-0.58428943
167	0x3ee5268d	0.44755974
168	0x3dd164ac	0.1022428
169	0x3d101551	0.03517658
170	0xbf81696c	-1.0110297
171	0x3e3fe772	0.18740633
172	0x3e4bb905	0.19894798
173	0x3defd5dd	0.11710713
174	0x3e3839d2	0.17990807
175	0xbe5558d7	-0.20834671
176	0x3e164ed3	0.14678507
177	0xbff59b76	-1.9188068
178	0xbf1b40d8	-0.6064582
179	0xbf4de570	-0.8042822
180	0xbee2d7e6	-0.44305342
181	0xbe28c54a	-0.1648151
182	0x3eaeb172	0.34119755
183	0xbcf35439	-0.029703246
184	0xbf6cf72c	-0.92564654
185	0xbf65ee5e	-0.89816844
186	0x3d82a691	0.06379426
187	0x3e37a639	0.17934503
188	0xbec16df8	-0.37779212
189	0xbfba9d15	-1.4579188
190	0xbf1a409c	-0.60254836
191	0x3e86790b	0.26264223
192	0xbf8fe747	-1.1242455
193	0xbd53dd3d	-0.05172466
194	0xbfa57915	-1.2927576
195	0xbf674e0e	-0.90353477
196	0x3c928bbb	0.017888894
197	0xbf0d8476	-0.55280244
198	0xbeb8800e	-0.36035198
199	0xbf9524ee	-1.1651895
200	0x3e0f18bd	0.1397428
201	0x3e5b241e	0.21400496
202	0xbde9e927	-0.114214234
203	0xbfce3a0e	-1.6111467
204	0xbe908c56	-0.28232068
205	0xbfae017c	-1.3594203
206	0x3e646eed	0.2230794
207	0xbdb10d40	-0.08645105
208	0xbfe0f1f9	-1.7573844
209	0xbeb2e7ff	-0.34942624
210	0xbcd15abb	-0.025555959
211	0x3e0267cd	0.1273491
212	0x3d97416d	0.07385526
213	0xbf9411e5	-1.1567961
214	0xbfb22380	-1.3917084
215	0x3edcc70f	0.4312062
216	0xbdc9091f	-0.09816193
217	0x3e4f8ca7	0.20268498
218	0xbfa3b420	-1.2789345
219	0xbf652f33	-0.89525145
220	0x3e845d3c	0.25852382
221	0x3e8cad4b	0.27475962
222	0xbfe165ca	-1.7609189
223	0x3e5a3805	0.21310432
224	0xbea5e093	-0.323979
225	0xbe8bf624	-0.27336228
226	0xbeec5a41	-0.46162608
227	0xbfc36cfa	-1.5267632
228	0xbf7dd96f	-0.991599
229	0xbf9a1828	-1.2038622
230	0xbd328f84	-0.0435939
231	0xbfa27621	-1.26923
232	0x3d9ee85b	0.07759162
233	0xbf877a3b	-1.0584177
234	0x3e8ea371	0.2785907
235	0xbf9feaf3	-1.2493576
236	0xbf1321b5	-0.5747331
237	0xbf009248	-0.5022321
238	0xbf89fd2c	-1.0780387
239	0xbddef9bf	-0.10887479
240	0xbf7bfda0	-0.98433876
241	0xc0041fce	-2.0644412
242	0xbffe36db	-1.986049
243	0x3e62a2ee	0.22132465
244	0xbfd811d4	-1.6880441
245	0xbf997921	-1.1990091
246	0xbf33db6b	-0.7025668
247	0xbde95795	-0.11393658
248	0xbf66b4dd	-0.90119725
249	0xbe6b66f9	-0.229885
250	0xbce126b3	-0.027484274
251	0xbdabddbc	-0.08391902
252	0xbebc7982	-0.36811453
253	0xbff60855	-1.9221293
254	0x3dc84b8a	0.09780033
255	0xbd447598	-0.04796371

fc.6.bias f4 [26]
0	0xbdbd4078	-0.09240812
1	0x3f14ee55	0.58176166
2	0xba7fff39	-0.0009765509
3	0xbeffe2a2	-0.49977595
4	0x3e3d010d	0.18457432
5	0xbe821731	-0.2540832
6	0x3f099019	0.537355
7	0x3f5ad5d5	0.8548253
8	0xbd548748	-0.051886827
9	0x3c971ce4	0.018446393
10	0xbe3ec6bb	-0.18630497
11	0xbf822f64	-1.0170712
12	0x3e0560b2	0.13025168
13	0xbb987f4f	-0.0046538482
14	0x3e1e96d0	0.15487218
15	0xbef7d91f	-0.48407838
16	0xbdac574e	-0.084150895
17	0x3e21085e	0.15725848
18	0x3f1435ee	0.5789479
19	0xbe86471b	-0.26226124
20	0x3edf520f	0.43617293
21	0xbf0371b6	-0.51345384
22	0xbe21496c	-0.15750664
23	0x3f2de180	0.6792221
24	0xbf109bf0	-0.5648794
25	0xbf6ddf18	-0.9291854
